…
de","source":"# Move the model to the appropriate device\nmodel.to(device)","metadata":{"execution":{"iopub.status.busy":"2024-09-01T19:47:24.951017Z","iopub.execute_input":"2024-09-01T19:47:24.951448Z","iopub.status.idle":"2024-09-01T19:47:25.260444Z","shell.execute_reply.started":"2024-09-01T19:47:24.951423Z","shell.execute_reply":"2024-09-01T19:47:25.259566Z"},"trusted":true},"execution_count":20,"outputs":[{"execution_count":20,"output_type":"execute_result","data":{"text/plain":"BertForSequenceClassification(\n  (bert): BertModel(\n    (embeddings): BertEmbeddings(\n      (word_embeddings): Embedding(105879, 768, padding_idx=0)\n      (position_embeddings): Embedding(512, 768)\n      (token_type_embeddings): Embedding(2, 768)\n      (LayerNorm): LayerNorm((768,), eps=1e-12, elementwise_affine=True)\n      (dropout): Dropout(p=0.1, inplace=False)\n    )\n    (encoder): BertEncoder(\n      (layer): ModuleList(\n        (0-11): 12 x BertLayer(\n          (attention): BertAttention(\n            (self): BertSdpaSelfAttention(\n              (query): Linear(in_features=768, out_features=768, bias=True)\n              (key): Linear(in_features=768, out_features=768, bias=True)\n              (value): Linear(in_features=768, out_features=768, bias=True)\n              (dropout): Dropout(p=0.1, inplace=False)\n            )\n            (output): BertSelfOutput(\n              (dense): Linear(in_features=768, out_features=768, bias=True)\n              (LayerNorm): LayerNorm((768,), eps=1e-12, elementwise_affine=True)\n              (dropout): Dropout(p=0.1, inplace=False)\n            )\n          )\n          (intermediate): BertIntermediate(\n            (dense): Linear(in_features=768, out_features=3072, bias=True)\n            (intermediate_act_fn): GELUActivation()\n          )\n          (output): BertOutput(\n            (dense): Linear(in_features=3072, out_features=768, bias=True)\n            (LayerNorm): LayerNorm((768,), eps=1e-12, elementwise_affine=True)\n            (dropout): Dropout(p=0.1, inplace=False)\n          )\n        )\n      )\n    )\n    (pooler): BertPooler(\n      (dense): Linear(in_features=768, out_features=768, bias=True)\n      (activation): Tanh()\n    )\n  )\n  (dropout): Dropout(p=0.1, inplace=False)\n  (classifier): Linear(in_features=768, out_features=5, bias=True)\n)"},"metadata":{}}]},{"cell_type":"markdown","source":"## **Defining function to predict sentiment**","metadata":{}},{"cell_type":"code","source":"def sentiment_score(review):\n    # Tokenize the input and move the tokens to the correct device (GPU or CPU)\n    tokens = tokenizer.encode(review, return_tensors='pt').to(device)\n    \n    # Perform the mo
…
